第5章 深度学习计算/mlp.params.pt (torch, 34235 bytes, 4 tensors)

hidden.weight f4 [256, 20]
000000 97 af de bd e0 3d 7a 3d 6c ca 26 be ce 79 f9 bd
       -0.10873335 0.061094165 -0.16288155 -0.121814355
000010 50 9e 82 3d 88 60 61 3e 00 32 61 3e b2 28 49 be
       0.06377852 0.2200948 0.2199173 -0.1964443
000020 bc de 30 bd 82 73 45 3e 90 45 1f 3d d8 a0 34 3e
       -0.043181166 0.19282344 0.0388847 0.17639482
000030 5e 6d a4 bd b0 19 78 3d fa 3b 2c be a0 d1 f1 3c
       -0.08028673 0.060571373 -0.16819754 0.029518902
000040 02 2f 3c be 8a 5b b6 bd 37 fb ff bd 5e 64 5d 3e
       -0.18377307 -0.089041784 -0.12499087 0.21620318
000050 e3 33 0f be c0 2f 4b bd 38 98 7c 3d e4 e0 b7 3d
       -0.13984637 -0.049606085 0.061668605 0.08978441
000060 b0 4e a8 bc 38 6a 1c 3e 02 88 22 3e 30 08 34 3e
       -0.020545334 0.15274894 0.15872195 0.17581248
000070 a4 22 c2 3d 40 2a 4f bb 38 f1 2a 3e f8 e5 aa 3d
       0.094792634 -0.0031610876 0.1669358 0.08344644
000080 e4 4c 85 3d 94 db 58 be f6 7a 57 3e 62 96 27 3e
       0.06508806 -0.21177512 0.21043 0.1636596
000090 1a d7 c3 bd 6a 2b 01 be ec ca 4a 3e 80 38 b7 bd
       -0.09562512 -0.12614217 0.19803971 -0.089463234
0000a0 9e 46 29 3e 00 4a 82 3a 7f 16 4c be c6 ad 45 3e
       0.16530845 0.0009940267 -0.19930457 0.1930457
0000b0 f2 9a 56 be 8e 19 28 be 2c dc 4a 3e 68 b3 a8 bc
       -0.20957544 -0.16415998 0.19810551 -0.02059336
0000c0 2a 8a 56 3e c0 42 0c be 1c 6f ec 3d 09 c5 40 be
       0.20951143 -0.13697338 0.1154463 -0.18825163
0000d0 d0 5b 90 3d 60 87 23 be d0 2d ef bc d4 f7 0c 3e
       0.07048762 -0.1596961 -0.02919665 0.13766414
0000e0 c2 51 2e be 64 c8 8a 3d 3a bc 20 be 78 20 13 be
       -0.17023376 0.06776503 -0.15696803 -0.14367855
0000f0 50 23 11 3e e8 27 9e bd ea bc f9 bd e8 4d 90 3c
       0.14173627 -0.07722455 -0.121942356 0.017615274
000100 c4 b9 e7 3d bd 41 4e be 30 73 1e be d0 b3 4d 3e
       0.11314729 -0.20142265 -0.15473628 0.20088124
000110 9c 8c a1 bd 47 e7 f4 bd 20 13 38 3d 16 b3 48 3e
       -0.07888147 -0.11958175 0.044940114 0.19599566
000120 36 f9 8c bd 26 48 56 3e c0 38 27 3b 1a 0d 0e 3e
       -0.06883471 0.2092596 0.0025516003 0.13872185
000130 45 e6 f2 bd a8 55 8a bd 1e 39 15 be 40 f0 a3 bb
       -0.11860327 -0.06754619 -0.1457257 -0.0050030053
000140 63 3a 51 be 5f 10 e9 bd c0 87 2a 3b c8 56 c2 bc
       -0.20432429 -0.11380076 0.0026020855 -0.023723021
000150 d0 5b cf bc 5c 41 40 bd e8 ec c8 3d f0 5c cc 3d
       -0.025312334 -0.04693733 0.09810811 0.09978664
000160 bf 7f 54 be cc 0c 4b 3e 88 b3 ef bd de e2 0f be
       -0.20751856 0.198291 -0.11704165 -0.14051387
000170 04 66 07 bd 58 18 8c 3c 00 9c 49 bd 2f 0b fe bd
       -0.033056274 0.017101452 -0.04922104 -0.12404477
000180 80 3b b4 3b e8 34 99 3c 24 62 39 3e 64 ae 6b bd
       0.005500257 0.018701985 0.18103844 -0.05753936
000190 1e 20 1c 3e 2c 24 3b bd e8 b3 9f 3d 48 67 db bc
       0.15246627 -0.045688793 0.07797986 -0.026782647
0001a0 94 e0 a5 bd e0 12 17 3e d8 37 b2 3d 9a 27 5a 3e
       -0.080994755 0.14753294 0.087020576 0.2130417
0001b0 8c 9d ea 3d 3d fd 26 be 93 e2 d8 bd 8a 9c b6 bd
       0.11455831 -0.1630754 -0.105900906 -0.08916576
0001c0 f2 17 0b be 9a 58 37 be 42 70 10 be 08 5d 8f 3d
       -0.13583353 -0.17904893 -0.14105323 0.07000166
0001d0 ca 7b 4f be 04 5b b0 3d 22 0e 3c be c0 b0 50 3e
       -0.20262066 0.0861111 -0.18364766 0.20379925
0001e0 ba f7 16 3e 93 c7 2b be f8 37 86 3d f0 c9 79 bc
       0.14742938 -0.1677535 0.06553644 -0.0152459
0001f0 78 fd 81 3d 38 f9 50 3e d0 ff b3 3c 00 bc 47 3d
       0.063471735 0.2040757 0.021972567 0.048763275
000200 f2 b6 0e be 30 ae da 3d e0 17 c7 3b d8 96 51 be
       -0.13936976 0.10677755 0.006075844 -0.20467699
000210 5c c5 41 be 46 63 c1 bd 61 f0 ee bd 68 d1 d6 3c
       -0.18922943 -0.09442763 -0.116669424 0.0262229
000220 5c f6 f5 3d bc c5 5d 3e d4 78 89 3d 70 57 0f 3c
       0.1200988 0.21657461 0.06712499 0.008748874
000230 d4 26 7b bd 59 e6 33 be da f5 56 3e 88 ce f1 bc
       -0.061316326 -0.1756834 0.20992222 -0.029517427
000240 e0 8e 15 3d 7a d1 97 bd 32 4d 11 3e 2c 47 6c bd
       0.03651321 -0.07413001 0.14189604 -0.057685062
000250 70 0c 9b 3d a4 74 ba 3d 9a 62 33 be 6d dd f5 bd
       0.07570732 0.09104279 -0.17518082 -0.12005124
000260 7e 02 22 3e 46 f8 fc bd a0 70 63 bc 40 7e 03 be
       0.15821263 -0.12352042 -0.013881832 -0.1284113
000270 14 53 b7 3d 40 a5 9f 3d 64 dd c9 3d 2e 13 08 3e
       0.08951393 0.07795191 0.0985668 0.13288566
000280 6b 88 ee bd f4 c1 1e 3e 25 0c 4a be f4 30 62 3e
       -0.116471134 0.15503675 -0.19731195 0.22088987
000290 19 21 63 be 2c 8e 14 bd 20 27 72 3d 31 da ca bd
       -0.22180595 -0.0362684 0.059119344 -0.09904898
0002a0 66 00 53 be e0 66 48 be f4 5b ea 3d e0 be 63 3d
       -0.2060562 -0.19570494 0.1144332 0.055601954
0002b0 08 ff 00 3d fe d0 51 3e 54 6f 97 bd f2 c5 42 3e
       0.031493217 0.2048988 -0.07394281 0.19020823
0002c0 b2 00 a5 bd 76 38 15 3e e6 de 1d 3e 38 ca 31 be
       -0.08056773 0.1457232 0.1541706 -0.17362297
0002d0 10 3f 88 3d a8 5e 2b 3d 9c c2 2c 3e bc 89 0b 3e
       0.06652653 0.041838318 0.16871113 0.1362676
0002e0 e2 bd 38 3e 70 d0 9c bd 84 c9 23 be ac 36 08 bd
       0.18041185 -0.07656944 -0.15994841 -0.033255264
0002f0 72 58 1e 3e 52 25 28 be 51 ac 1c be 08 86 7b 3d
       0.15463427 -0.16420487 -0.15300108 0.06140712
000300 5c e0 49 be d4 03 2c 3e 54 ab bb 3d dc ce 62 3e
       -0.19714493 0.16798335 0.091635376 0.22149223
000310 00 40 cb 3b 73 7d 3e be b8 89 32 3d 30 d2 99 bd
       0.0062026978 -0.18602543 0.04358837 -0.07510793
000320 40 01 0c 3c b4 fc 1b be a4 18 43 bd 10 cd 74 bc
       0.00854522 -0.15233117 -0.04763092 -0.014941469
000330 80 ee af 3d e0 0d 91 3c a6 ca fe bd 50 bb df 3c
       0.08590412 0.017706811 -0.12440996 0.027310997
000340 c0 92 4d 3b 6a b8 45 3e 7b 91 d4 bd 90 01 2a be
       0.0031367987 0.1930863 -0.10379311 -0.16602159
000350 70 b7 30 3e 60 82 e9 bc b4 5a 16 be 8f ab f9 bd
       0.17257476 -0.02850455 -0.14683038 -0.12190925
000360 e4 37 41 3e 44 f2 13 be c8 c6 1d be d8 44 b0 3d
       0.18868977 -0.14447886 -0.1540786 0.08606881
000370 d7 42 12 be 9b d5 d8 bd 60 7b 5c 3e 9c 58 dc 3d
       -0.1428331 -0.10587617 0.21531439 0.107590884
000380 e0 33 17 3e c2 2f b9 bd f6 43 33 3e 80 eb 7f 3d
       0.14765882 -0.09042312 0.17506394 0.06248045
000390 08 e7 07 3e 6f 35 1c be 88 fb bf bd 08 64 39 3d
       0.13271725 -0.15254758 -0.09374148 0.045261413
0003a0 c0 e8 ba 3b e8 b0 c2 bd 04 18 61 3e 00 b0 3e ba
       0.0057040155 -0.095063984 0.21981817 -0.0007274151
0003b0 f0 0e 4f 3e c4 44 dd 3d 0c 27 93 3d 90 0e bb 3d
       0.20220542 0.108041316 0.07185182 0.09133637
0003c0 5c 37 f3 3d 78 6a 58 3e 27 9b 04 be 80 a3 56 3e
       0.11875793 0.21134365 -0.12949811 0.20960808
0003d0 03 29 38 be 8c ef 19 be aa 17 2e 3e 20 f0 c6 bc
       -0.17984395 -0.15032786 0.17001215 -0.024284422
0003e0 6e 05 3b 3e a4 5c 18 3e 24 a5 45 3e d8 6a 88 3c
       0.1826379 0.1487909 0.19301277 0.01665251
0003f0 b6 0c 5b 3e 40 4f 00 be cc f5 32 bd 24 77 54 3e
       0.21391568 -0.12530231 -0.04369144 0.20748574

hidden.bias f4 [256]
000000 a0 bc f3 bc f4 df 4d be 70 ac b4 bc dc dc f0 3d
       -0.02975303 -0.20104963 -0.02205488 0.117608756
000010 f0 37 86 bc 6c 54 64 3e 40 fc f5 bc 3e b0 4e 3e
       -0.016384095 0.2229783 -0.030027509 0.20184419
000020 50 27 22 3d 44 32 21 be 4d d6 43 be 30 05 45 3d
       0.039588273 -0.15741831 -0.19124718 0.04810065
000030 b0 c9 96 bc f2 08 01 3e 76 93 02 be b8 01 19 be
       -0.018406719 0.12601069 -0.12751564 -0.14942062
000040 f2 50 4b be 10 68 9f 3c 2e 18 1d 3e 22 c3 47 3e
       -0.19855097 0.0194588 0.15341255 0.19508031
000050 98 ab 09 3e 06 9d dc bd b4 d7 5e be a0 63 bf bb
       0.13444364 -0.10772137 -0.21761972 -0.0058407336
000060 58 19 4d be 8a 75 9d bd d8 99 48 3e b0 ae 61 3e
       -0.20029199 -0.076884344 0.19589937 0.22039294
000070 2c 58 2c be 80 18 84 3b 50 ee f5 3d 58 fe 15 3d
       -0.1683051 0.004031241 0.12008345 0.036619514
000080 75 dd 5c be 64 7c 0b bd de b2 0e 3e 52 07 13 be
       -0.21568854 -0.034054175 0.1393542 -0.14358261
000090 b8 7b 95 3c d8 76 ee 3d 21 73 05 be 7a 9c 30 3e
       0.01824747 0.116437614 -0.130322 0.17247191
0000a0 4d 7d 39 be 80 98 a7 bd 80 a2 42 3c 18 02 e0 3d
       -0.18114205 -0.08183384 0.011879563 0.10937899
0000b0 01 e7 27 be d0 bd 42 3e 00 97 54 3e 46 ac 3b 3e
       -0.16396715 0.1901772 0.20760727 0.18327436
0000c0 50 de 2d 3e 9e f0 19 be 7e 0a 61 3e 84 c8 f4 3d
       0.16979337 -0.15033194 0.21976659 0.11952308
0000d0 f4 b2 82 bd 58 12 48 be ea 66 13 3e a0 93 7e bd
       -0.06381789 -0.19538248 0.14394727 -0.062152505
0000e0 ef cc 61 be 28 4e 0d 3e 8c 1c 48 bd 4e 5e 1c 3e
       -0.22050832 0.13799345 -0.04885535 0.1527035
0000f0 90 fc db 3c 84 cf 41 be 84 10 40 3e 00 d1 9f 3d
       0.02685383 -0.18926817 0.187563 0.078035355
000100 38 91 5a 3d b0 4b 25 bc 20 55 a3 3d e7 80 e8 bd
       0.053361148 -0.010088846 0.07975221 -0.11352711
000110 16 ad 2c 3e 90 71 cd 3c 68 29 7e bd d4 45 e5 3d
       0.16862902 0.025078565 -0.062051207 0.11194959
000120 6c 73 4f bd 20 0f 19 3e 18 49 39 3e 58 75 f4 bc
       -0.050647184 0.14947176 0.1809429 -0.02984111
000130 30 b3 b9 3c 98 17 13 be 06 e4 80 bd 64 c5 ec 3d
       0.022668451 -0.14364469 -0.06293492 0.11561087
000140 0f 59 d3 bd c8 f6 e0 bc dc c1 24 bd e0 d1 71 bc
       -0.10319721 -0.027461424 -0.04022394 -0.014759511
000150 9b 89 0b be 06 27 5a 3e 00 00 96 bb 80 6a 8a 3d
       -0.13626711 0.21303949 -0.0045776367 0.067585945
000160 1e af 1a be f8 c6 c6 3c 8a 60 02 3e 00 04 40 3d
       -0.15105864 0.024264798 0.12732139 0.046878815
000170 d0 e4 a9 3c 02 62 2f be 3e 79 63 3e 26 e1 bb bd
       0.02073899 -0.17127231 0.22214219 -0.09173803
000180 9d 19 3d be ec 1c 30 bd b2 de 0b 3e c0 cb 91 3d
       -0.18466802 -0.042996332 0.1365917 0.0711894
000190 a0 fe 33 bd 5e d6 3d be 82 7a 2c 3e dc 68 ad 3d
       -0.043944 -0.18538806 0.16843608 0.08467266
0001a0 e4 f4 24 3e 42 c3 35 3e 14 36 87 bd 50 de 33 bd
       0.16109043 0.17750266 -0.066021115 -0.043913186
0001b0 d9 14 4c be 00 97 3e ba 64 69 b7 bd 38 65 19 3d
       -0.19929828 -0.00072704256 -0.089556485 0.037450045
0001c0 d6 70 23 be b0 ec 8f bc 08 f2 05 be bc ef 53 bd
       -0.15961012 -0.017568916 -0.13080609 -0.0517423
0001d0 c3 4b 4b be 60 fe ec 3c 12 cf cc bd ca 98 8d bd
       -0.1985312 0.02892989 -0.10000433 -0.06913908
0001e0 6a 57 5e 3e 40 ed 65 3b 74 bd b9 3d 3e 8d 02 be
       0.21713033 0.003508404 0.090693384 -0.12749192
0001f0 a8 5b 74 bd 50 08 20 be 1c ab 64 3e 9e a3 03 be
       -0.059657723 -0.15628171 0.22330898 -0.12855384
000200 8c c7 bc 3d 98 d1 fe bd 48 72 0e 3e 18 56 10 3d
       0.09217748 -0.124423206 0.13910782 0.035238355
000210 70 e5 f0 3d 80 9a 03 3b 0a c7 61 3e c4 1c a3 3d
       0.11762512 0.0020081103 0.22048584 0.07964471
000220 d8 b6 3b 3d e0 54 aa 3b b8 73 69 bd c0 d8 55 3b
       0.04582867 0.005198106 -0.056995124 0.0032630414
000230 28 a1 17 3e e4 68 2c 3e b0 52 a2 bc 90 3c 21 bd
       0.1480757 0.16836888 -0.01981482 -0.039364398
000240 da 5f 3b be 60 9d 2c 3c fe bc 48 be b9 48 53 be
       -0.18298283 0.010535568 -0.19603345 -0.2063321
000250 90 dd b7 bd 98 a7 91 3d 06 3d 43 be 54 bb b8 3d
       -0.089778066 0.07112044 -0.19066247 0.09020105
000260 ae 7d a9 bd 5a 30 04 3e 10 0e 7a 3c d5 26 fa bd
       -0.082759246 0.1290907 0.015262142 -0.12214438
000270 74 e1 4e 3e 16 74 96 bd 00 f4 05 be 66 ac 4e 3e
       0.20203191 -0.073463604 -0.1308136 0.20182952
000280 80 ce 0a bd 00 ed 84 3c d0 48 0e be 50 34 06 3d
       -0.03388834 0.016226292 -0.13894963 0.032764733
000290 46 e4 07 3e a0 b3 08 be b4 53 5c be 27 86 cf bd
       0.13270673 -0.13349771 -0.21516305 -0.101330094
0002a0 0c 8d 85 bd dd 2b 43 be b8 fe a4 bc 2c 4a d4 3d
       -0.06521043 -0.19059701 -0.02014099 0.1036571
0002b0 58 c4 8a bd 60 60 90 3d 6a af 1a 3e 00 e4 c9 3d
       -0.06775731 0.07049632 0.15105978 0.09857941
0002c0 5c f3 d4 3d 67 70 eb bd 1c 8d 10 bd ac 36 5a bd
       0.103979796 -0.114960484 -0.035290822 -0.053274795
0002d0 f3 06 d1 bd 2f 98 3e be f6 1d 90 bd be 09 1a 3e
       -0.102064036 -0.18612741 -0.070369646 0.15042779
0002e0 de ed 18 3e 48 af 54 be 94 00 d8 3d 50 9b e9 bc
       0.14934489 -0.2076999 0.10546985 -0.028516442
0002f0 c0 ab e9 3d 89 bf 16 be cc 94 88 3d 39 2c 27 be
       0.11409712 -0.14721502 0.06669006 -0.16325463
000300 04 52 3b 3e c1 e1 2d be 00 60 06 3a f0 0b 60 bc
       0.18293005 -0.1698065 0.00051259995 -0.013674721
000310 6b 82 20 be c8 8a f4 3d a8 a3 42 3d 0c b6 4a bd
       -0.1567475 0.11940533 0.047519356 -0.04949002
000320 47 34 fa bd ce 81 11 3e 44 cf 5a bd 48 0c 3a bd
       -0.12217002 0.14209673 -0.05342032 -0.04542187
000330 70 95 52 be f4 04 89 3d e0 c5 fe 3d c0 bc da 3c
       -0.20564818 0.06690398 0.124400854 0.026701331
000340 dc 57 3b bd 58 7b 9d bd b4 00 09 3e 28 7c 5a 3d
       -0.045738086 -0.076895416 0.13379174 0.05334106
000350 2c 07 43 bd 48 bd af 3c c8 23 5f 3d a8 f7 44 3d
       -0.04761426 0.021452561 0.054477483 0.048087746
000360 af 98 16 be 34 2c cf 3d 78 f8 6d 3d 3b 1c fd bd
       -0.14706682 0.10115853 0.058098286 -0.123589
000370 44 1d 15 3e 58 85 0c 3e e8 b1 b0 bc e8 9c 26 be
       0.14561945 0.13722742 -0.021569207 -0.16270792
000380 30 af 6f bd e8 3d c8 3d 56 c5 05 3e 9c cd 33 3e
       -0.05851668 0.09777433 0.13063559 0.17558903
000390 00 5f f6 3d 65 0e f4 bd 0a ea 57 3e c4 dc a5 3d
       0.120298386 -0.11916808 0.21085373 0.08098748
0003a0 fa b7 51 be 30 74 40 3d 30 c0 5e bc 60 55 ff 3d
       -0.20480338 0.046985805 -0.013595626 0.12467456
0003b0 e4 cc 20 be 90 97 f9 3c a0 ac 5b be c4 c2 bf 3d
       -0.1570316 0.030467778 -0.2145257 0.093633205
0003c0 68 8e d9 bc 48 eb d0 3d d4 f0 f7 3d f8 99 a6 bc
       -0.026557162 0.10201126 0.12106481 -0.02033709
0003d0 a8 55 5b 3d 88 6f 2e 3e d2 1f 13 be 80 c2 a1 3d
       0.053548485 0.17034733 -0.14367607 0.07898426
0003e0 1e 9c 49 be be 16 34 3e 8c 70 5d 3e 7f 9e 56 be
       -0.1968846 0.175868 0.21624964 -0.20958899
0003f0 e2 81 28 be 70 48 18 3e 00 f0 7a 39 98 ab d7 3d
       -0.16455796 0.14871383 0.00023931265 0.10530776

output.weight f4 [10, 256]
000000 a4 40 48 3d 72 86 00 bd 80 61 ac 3a 40 35 43 3d
       0.04888977 -0.031378217 0.0013151616 0.047658205
000010 60 55 bf bb 38 78 55 bd be 96 2c 3d da 93 3e 3d
       -0.005839035 -0.052116603 0.042135946 0.04652772
000020 00 3f ae 39 20 36 3b bc 6e c7 61 bd d4 1f cb bc
       0.00033234805 -0.011426479 -0.05512183 -0.02479545
000030 90 a7 81 3c ea 42 5f bd e4 7b 5f bd 38 86 7c bd
       0.01582697 -0.054507174 -0.05456151 -0.06165144
000040 c2 b4 6c bd f0 d5 52 bd 76 52 29 3d 00 37 d2 bc
       -0.05778957 -0.051473558 0.041338407 -0.025660992
000050 40 6f e7 bc c2 7e 0a bd 58 ad 78 3c 00 57 e3 3b
       -0.02825129 -0.033812292 0.015178047 0.0069378614
000060 bc 7c bd 3c 1c 64 18 3d c8 80 23 3c a0 17 48 bb
       0.023130767 0.037204847 0.009979434 -0.003053166
000070 c8 86 10 bd a8 b1 83 bc 8c 3c 17 3d d6 29 52 bd
       -0.035284787 -0.016075924 0.036922976 -0.05130943
000080 00 40 10 37 8c 56 93 bc d8 fb 76 3c 4e 1c 3e bd
       8.59797e-06 -0.017985605 0.015074693 -0.046413712
000090 90 e8 ab 3b d8 3f 8f bc 48 63 36 bc 60 e7 bc 3c
       0.0052462295 -0.017486498 -0.011132069 0.023059547
0000a0 ac 05 f4 3c 78 59 28 bd 40 2d a7 bc e0 7d 65 bc
       0.02978786 -0.04110095 -0.02040732 -0.014007062
0000b0 62 fb 28 bd aa 82 49 bd b4 2d 79 bd c0 90 11 bd
       -0.041255362 -0.049196877 -0.0608346 -0.035538435
0000c0 40 a9 ee bc 10 0c 87 3b fe 94 44 bd 8e d8 12 3d
       -0.029133439 0.004121311 -0.047993653 0.035851054
0000d0 e8 80 61 bc 18 b5 63 bc 6e ca 50 bd 58 fd 17 3c
       -0.013763644 -0.013898157 -0.050974302 0.00927671
0000e0 c8 4d f0 bc 88 40 af 3c 0c 19 e5 bc d4 2e 9f bc
       -0.029333964 0.021393076 -0.027966045 -0.01943151
0000f0 a6 4c 00 3d 9c 86 d3 bc 2e be 1f 3d fe 80 09 3d
       0.031323098 -0.025821023 0.03899973 0.033570282
000100 76 ee 4f bd 14 b3 99 bc c0 31 c2 bc 64 06 ef bc
       -0.050764523 -0.018762149 -0.023705363 -0.029177852
000110 08 4a 16 bd bc 88 a8 bc 20 bc 41 3b 0c 2b 33 bd
       -0.036691695 -0.020573013 0.0029561594 -0.043742225
000120 4c 9b d5 3c 0c 4e 56 3d 70 a3 78 bc f2 57 3c 3d
       0.026075028 0.052320525 -0.015175685 0.04598231
000130 7c 81 25 bd 18 4f c8 bc 02 72 40 bd a0 38 0a 3c
       -0.04040669 -0.024451777 -0.046983726 0.008436352
000140 a6 d6 52 3d 9c c9 89 3c c0 a7 bd 3c a6 a3 61 bd
       0.051474236 0.016819768 0.023151278 -0.055087708
000150 4a ec 6b bd 3c 61 c6 3c 10 3c e1 bc 00 14 55 3b
       -0.05759839 0.024216287 -0.02749446 0.0032513142
000160 14 3a 8d bc 50 13 3e 3d 22 7b 67 bd 12 c0 49 bd
       -0.017239608 0.046405137 -0.056513913 -0.04925544
000170 7c 8d 51 3d 28 6c d1 bc a0 60 df bc 30 ca 3f 3d
       0.05116032 -0.025564268 -0.027267754 0.04682368
000180 b8 04 94 bc 90 d0 fa bc c0 26 99 3c f4 84 08 bd
       -0.018068656 -0.030617028 0.018695235 -0.03332992
000190 d2 a2 27 3d 20 e8 c1 3c d0 7e d7 bc c8 54 57 3c
       0.040926762 0.023670256 -0.026305586 0.013142772
0001a0 80 ca 8f 3b 92 1c 20 bd 0c 41 28 3d 40 cd c7 3a
       0.0043881536 -0.039089747 0.04107766 0.0015243664
0001b0 fc d6 7b 3d 4c 43 93 bc 9c 5a 5f 3d 9a 0e 3a 3d
       0.061484322 -0.017976426 0.05452977 0.04542408
0001c0 6a 8e 4d 3d 50 b8 da 3c b4 0e b9 bc 80 8d 8d 3a
       0.050184645 0.026699215 -0.022590019 0.0010799617
0001d0 3c 2e a1 3c fc b2 aa 3c 3e 0f 7e 3d 5c 0b 10 bd
       0.019675367 0.0208373 0.062026255 -0.035167083
0001e0 6c dd 8a 3c 70 6d 7b bd 68 59 ee 3c 08 53 3f 3c
       0.016951285 -0.061383665 0.029095367 0.011677511
0001f0 44 4d 49 3d d4 8f 4c bd 80 d9 fd 3a 50 df db bc
       0.049145952 -0.049941853 0.0019367188 -0.026839882
000200 0e 37 3e bd 50 0a 0a 3d b8 fe 56 bd 4a 9e 66 3d
       -0.046439223 0.03370124 -0.052489012 0.0563033
000210 14 89 7c bd 4e 0b 54 bd 5c 78 6a bd 7e 01 48 3d
       -0.061654165 -0.051768593 -0.05724369 0.048829548
000220 c2 e6 35 3d cc 90 03 bd a0 48 3c bb 52 4b 5f 3d
       0.04440952 -0.03212051 -0.0028729811 0.05451519
000230 60 df a1 bb f0 21 7e 3d c8 fc a9 3c 04 b8 42 3d
       -0.0049399585 0.062044084 0.020750418 0.047538772
000240 ba 74 0d 3d 18 77 19 3c b4 79 e9 bc c4 c4 de bc
       0.034535147 0.009366773 -0.028500415 -0.027193435
000250 ce 5f 28 bd b0 08 79 3c 88 da 7e bc 42 85 61 3d
       -0.04110699 0.015199825 -0.015555032 0.055058725
000260 d0 5e 64 3c f2 09 7b 3d 04 79 3b bd 98 c6 a6 bc
       0.013938621 0.06128878 -0.045769706 -0.020358369
000270 2a df 6e bd aa 0c 72 bd 0a f2 06 bd 70 b4 b5 3b
       -0.058318295 -0.05909411 -0.03294567 0.0055451915
000280 18 ae 1d bd 2e b4 08 bd ca 68 22 3d 6c 48 40 bd
       -0.038496107 -0.033374958 0.039650716 -0.046944067
000290 98 07 82 bc ec 18 af 3c 26 48 65 bd 08 b8 30 3d
       -0.015872762 0.021374188 -0.05597701 0.043144256
0002a0 cc b5 0e 3d 60 40 04 3d a4 27 48 bd 58 a9 45 bc
       0.034841344 0.032287955 -0.04886593 -0.0120643005
0002b0 9c 51 3f bd f0 2e 02 3c c2 35 24 3d c4 08 a7 bc
       -0.04670869 0.007945761 0.04009033 -0.020389922
0002c0 a8 c0 ee bc 6c 87 56 3d de 04 40 3d d0 bb e8 bb
       -0.0291446 0.052375242 0.04687964 -0.007102467
0002d0 30 a5 50 3d a8 0c 7d 3c 28 5e b1 3c 28 dd 7d 3c
       0.050938785 0.015444912 0.021651343 0.015494622
0002e0 40 26 8f bc e0 56 7d 3b d2 28 79 bd 6a cc 51 3d
       -0.017474294 0.0038656518 -0.060829945 0.051220335
0002f0 d6 8b 0d bd 54 92 bd bc 40 17 26 bc f8 11 0c 3d
       -0.034557186 -0.023141064 -0.010137379 0.034196824
000300 88 c9 29 3c a8 65 09 3c e0 c7 27 3b d8 44 54 3d
       0.01036299 0.008386053 0.0025601313 0.051823467
000310 ac a0 1e 3d 2a 52 6f bd 4e d7 18 bd 0e 7b 21 bd
       0.038727447 -0.058427967 -0.037314706 -0.039423995
000320 58 50 f3 bc d8 78 75 3d a8 e9 ec bc ea a1 03 bd
       -0.029701397 0.0599297 -0.02892001 -0.032136835
000330 e8 29 41 bd c4 63 0e bd 24 6f 74 3d 28 94 16 3c
       -0.047159106 -0.034763113 0.059676304 0.009190597
000340 14 42 56 bd f4 6b 7a 3d 38 49 e2 3c 00 75 b5 3c
       -0.05230911 0.06113811 0.027622804 0.022150517
000350 18 c6 2e 3d 30 75 45 3d 78 29 61 3d e6 91 54 bd
       0.042669386 0.04820746 0.05497119 -0.051896952
000360 ae 4b 4a bd 3a 66 28 3d 40 6a 21 bb 18 26 10 3d
       -0.04938858 0.041113116 -0.002462998 0.03519258
000370 98 47 dd 3c 08 fd 98 3c 10 2e d1 bb 46 80 43 3d
       0.027011678 0.018675342 -0.006383665 0.047729753
000380 08 8b 34 bc 26 1a 50 bd 24 2a 6e bd 7c d1 12 3d
       -0.011019476 -0.050806187 -0.058145657 0.03584431
000390 62 b0 36 3d e2 da 21 bd c0 b2 a0 3b d6 c1 04 3d
       0.044601806 -0.039515384 0.004904121 0.03241142
0003a0 08 94 1e bd 3e ee 38 3d 3e 8f 55 3d 62 e9 01 3d
       -0.038715392 0.04514908 0.05213856 0.03171671
0003b0 08 43 08 3d 80 b4 b8 ba a0 db 08 bb 10 06 88 3c
       0.03326705 -0.0014091879 -0.002088286 0.016604453
0003c0 44 97 9f bc 06 bf 7b 3d 8c 6d fb bc 60 a4 c4 3c
       -0.019481309 0.06146147 -0.030691884 0.024004161
0003d0 28 f2 b1 bc 1c 45 b8 3c 04 dd bc 3c c8 79 a8 bc
       -0.021721914 0.022493891 0.023054607 -0.020565882
0003e0 30 87 ac 3c 4c 9e 77 3d 58 aa 48 bd 30 ec b4 3b
       0.021060556 0.060453698 -0.048990577 0.00552132
0003f0 b2 b8 16 3d b0 89 ab 3c 48 19 06 3d a4 39 85 3c
       0.036797233 0.020939678 0.032738954 0.016262837

output.bias f4 [10]
000000 38 a6 1c 3c 5a 86 07 3d fc 5a 5b bd 1e 1a 73 3d
       0.009561114 0.033087112 -0.053553566 0.05935108
000010 94 d3 ef 3c d8 57 a3 3c 28 25 47 3d 6c 43 07 3d
       0.029275693 0.019939348 0.04861942 0.033023283
000020 f6 6d 2b 3d 90 1c 4d bd
       0.041852914 -0.050076067
